DeepLearning/99. 복습/01. 기초/ch2_parameters.npz (npz, 7133 bytes, 4 tensors)

W_h (column-major) f4 [128, 2]
000000 38 37 ee bd ca 69 8f 3f fb af 21 bf 78 5b 0c bf
       -0.11631626 1.1204159 -0.6315915 -0.5482707
000010 b5 5e cc be 29 c6 d7 be 37 e7 a9 3f e0 c3 8f bd
       -0.39916006 -0.42143372 1.3273686 -0.07019782
000020 6d 9a 06 3f 29 06 84 3e 4a ee b2 be fe cc 2a bf
       0.52579385 0.2578595 -0.34947425 -0.66719043
000030 43 09 fb be 3f 08 8b bd 77 99 7f 3f b7 bd d3 3e
       -0.49030504 -0.06788682 0.99843544 0.41355678
000040 b3 d7 80 3e 6c 55 88 be 27 55 86 bc 58 8b 13 bf
       0.25164565 -0.26627672 -0.016398026 -0.57634497
000050 77 5f a7 be ed 12 2a be c7 a5 68 3d b4 f1 17 40
       -0.3269002 -0.16608782 0.056798723 2.3741274
000060 34 82 b1 3e 5c 8c d1 3e 83 90 46 bf 33 af 59 be
       0.3466965 0.40927398 -0.7756426 -0.2125824
000070 a7 1f 0a bf f1 47 b1 3f 16 6c 00 c0 3f 43 ae 3d
       -0.5395455 1.385008 -2.006597 0.0850892
000080 2f c1 eb be 0c 0d 84 bd ab ca 2f 3f df 88 c3 be
       -0.46045825 -0.06447801 0.6866862 -0.38190362
000090 c4 7c 19 c0 d1 6b 38 3e 52 97 e6 3e 08 09 83 3e
       -2.39824 0.18009879 0.45037323 0.25592828
0000a0 b6 c5 87 3f f2 de 4d 40 89 5d d2 be bf ed d1 bb
       1.0607212 3.2167325 -0.41086987 -0.0064065154
0000b0 73 a9 aa be 00 bd d0 3e 86 df 56 be 3a de 52 be
       -0.33332404 0.40769196 -0.20983705 -0.20592585
0000c0 7e b6 06 3e 8d 86 6f be 90 9f 1c 3d 3f be 4c be
       0.13155553 -0.23391171 0.03823811 -0.19994448
0000d0 6f ba a8 3f 15 7b ce 3e 62 ad 9f be 2d 42 58 be
       1.3181895 0.4032828 -0.31186968 -0.21118994
0000e0 d4 67 f4 be 9e f9 54 be d4 85 bd 3e fc c7 50 be
       -0.47735465 -0.20798346 0.37016165 -0.20388788
0000f0 05 bf b1 be 4d 5e 83 be 15 2a 3b 3d fb 58 fa be
       -0.3471605 -0.25657883 0.04569443 -0.48896012
000100 fc ab b7 bd 31 6e 81 3c 92 d2 43 3f 41 55 7c be
       -0.0896835 0.015799614 0.7649318 -0.24641897
000110 53 31 18 3e ea a7 d8 be c2 09 67 3d 58 2a 74 3d
       0.14862566 -0.42315608 0.05640579 0.059610695
000120 ff 98 2f 3e 21 7c 05 40 94 8e db bc db 08 b5 be
       0.17148207 2.0857012 -0.026801385 -0.3535832
000130 c8 d6 e4 be 2c 0e d8 be e2 e3 94 3b 49 39 c4 be
       -0.44695115 -0.42198312 0.0045437673 -0.38324955
000140 42 2c b8 3e 0f d2 20 3e 31 c0 9a 3f 85 79 c5 be
       0.35971266 0.15705131 1.2089902 -0.38569275
000150 d0 b4 b6 be 17 76 a7 3e 2d 4f d9 be 5d 11 05 bf
       -0.35684824 0.32707283 -0.4244322 -0.5197962
000160 14 59 a2 be 3f 52 85 be 89 b2 bd 3e f2 0e 12 be
       -0.31708586 -0.2603931 0.37050274 -0.14263514
000170 1c a7 c2 3e 54 6c cf be d5 61 ce 3e 36 f6 17 3f
       0.3801812 -0.40512335 0.40309015 0.59360063
000180 f5 a2 b4 be ce 47 95 be b6 77 85 be 3b c7 89 3d
       -0.35280576 -0.29156345 -0.26067895 0.06727453
000190 7a ca ad be c9 2c 31 3d 33 44 9f 3e ac ff d2 bd
       -0.3394354 0.0432556 0.3110672 -0.10302672
0001a0 7f 31 fa 3d ff c8 9c 40 20 f8 b5 3e 44 6b cc 3e
       0.12216472 4.8995357 0.35540867 0.39925587
0001b0 92 03 78 3f 7e e2 82 bd 2c 25 8a bf da 5b 43 bf
       0.9688045 -0.06390856 -1.0792594 -0.7631203
0001c0 bd 87 03 3f 5f 68 89 bd 10 9b d9 3e b1 14 87 3e
       0.51378995 -0.0670936 0.42501116 0.26382974
0001d0 66 5e c9 be 34 40 aa 3f 0d e1 e9 be 76 8f 6d 3f
       -0.39329833 1.3300843 -0.45679513 0.9279703
0001e0 ba 64 b5 3e 4d 59 22 be 9a c5 47 3e a9 f4 ff be
       0.3542841 -0.15854378 0.19508973 -0.49991348
0001f0 a4 e9 1b 40 4f d5 10 3f 9e b5 6a bf 07 98 11 bf
       2.4361353 0.56575483 -0.91683376 -0.568726
000200 e5 53 99 3e e1 95 79 bf 31 31 8a 3f c0 45 7e 3f
       0.2994682 -0.9749432 1.0796262 0.9932518
000210 a7 0a a5 be b6 30 3e be bc 02 77 3f 5e 17 09 bf
       -0.3223469 -0.18573269 0.9648855 -0.5355128
000220 22 16 80 3b 2d 6e 95 c0 97 67 e7 be b6 9a 1d 3f
       0.0039088884 -4.669699 -0.4519622 0.61564195
000230 9b f1 ac 3e 4a 61 ff be f6 fb e5 bf 51 63 7a 3e
       0.3377808 -0.49878913 -1.7967517 0.24451949
000240 52 68 b5 be 70 cd ab 3f 85 3f e0 3e 37 aa 98 3d
       -0.35431153 1.342207 0.43798462 0.07454341
000250 a9 d3 d3 be c0 a2 d9 3e 0c 17 e2 be 9f 60 da 3f
       -0.4137242 0.4250698 -0.44158208 1.7060736
000260 dc a1 2a 3e 4b 7a ca bd 7b 39 2d 3e a0 d9 dc 3e
       0.16663307 -0.09886607 0.16916458 0.43134785
000270 d2 c3 79 bd 5d 98 06 3f 4d e7 31 bf 67 33 95 3f
       -0.060977764 0.5257624 -0.6949356 1.1656312
000280 6c 55 46 3f 22 f2 ce 3e cd cc da 3e 5e de 80 be
       0.77474093 0.40419108 0.42734376 -0.25169653
000290 ff b3 b6 bd c1 2c d1 be 56 51 75 3e 55 a3 cf be
       -0.0892105 -0.40854457 0.23956808 -0.405543
0002a0 ed 76 e8 3e 4a 2e 33 3f 40 8f 31 be d5 12 e6 be
       0.45403233 0.69992507 -0.17339802 -0.44936243
0002b0 0f fe c0 be 93 48 5e 3e ea e4 9a 3e 5c 0c b5 be
       -0.3769383 0.21707372 0.30252773 -0.35360992
0002c0 ac e7 df be 5c 5a 4c 3e 02 06 e7 be cb 7e 88 3e
       -0.4373144 0.19956344 -0.4512177 0.26659235
0002d0 37 e8 4b be e6 ec cb bc 6d 77 bf 3e 4e 2e 97 3e
       -0.19912802 -0.024893235 0.37395802 0.29527515
0002e0 30 97 cd bd 47 63 8f 3e 1b 9a ae 3d bf 7b bc 3e
       -0.10038602 0.2800543 0.08525487 0.3681316
0002f0 73 e3 94 be 21 b6 06 3f b7 98 bb be 3a 38 8c 40
       -0.2907978 0.52621657 -0.3663995 4.3818636
000300 71 de ba 3e a8 13 d2 be 4c 81 57 be 91 9c a8 3e
       0.36497834 -0.41030622 -0.21045417 0.3293195
000310 31 8f b4 be ce 30 3c be 0a 96 c1 be b2 f1 e6 be
       -0.35265496 -0.18377993 -0.37809783 -0.45106274
000320 25 46 08 bf eb 2b 3c be 96 cb 30 bf f7 ec ff 3d
       -0.5323203 -0.18376128 -0.6906065 0.12496369
000330 e4 77 30 be ee 92 5a be 45 65 08 bf 5c aa 85 be
       -0.17233235 -0.21345112 -0.53279525 -0.26106536
000340 fa 90 9c bc 0b 09 ce be b1 4e 88 bf 48 d7 5c be
       -0.019112099 -0.40241274 -1.0649015 -0.21566498
000350 fb 1b cc be 6d 08 cb 3d 21 c5 0d be 08 4a 82 bd
       -0.39865097 0.099137165 -0.1384473 -0.063617766
000360 cf c5 b9 3e 1a fb cd 3e ca 12 9b 3d 23 14 9b 3e
       0.36283728 0.40230638 0.07571943 0.302888
000370 b8 90 2f 3c 13 d3 98 be 94 9f 06 3e b4 46 95 bc
       0.010715656 -0.29848537 0.13146812 -0.01822219
000380 f1 35 6d be 9d f3 da 3e b6 70 cf be 7b d0 c7 be
       -0.23165108 0.42763987 -0.4051568 -0.39026245
000390 d6 28 ac 3e be 29 c1 be fb 19 8e 3d ff d1 a9 3e
       0.33624905 -0.3772716 0.06938549 0.33168027
0003a0 28 0a b7 be cf 58 d4 be 3c cb dc 3d 01 10 9e 3e
       -0.35749936 -0.41474006 0.107809514 0.30871585
0003b0 16 58 3f 3f d4 74 bf 3e 49 f2 34 3f 9a f0 1b 3e
       0.74743783 0.3739382 0.706822 0.15228501
0003c0 e1 f9 bb bd ed ba a8 3e ff 92 f0 bd b7 ef bf be
       -0.0917852 0.32955113 -0.11746787 -0.37487575
0003d0 42 13 7d be 6c 66 4f 40 dd d3 22 be 9a b7 75 bf
       -0.24714378 3.2406263 -0.15901132 -0.9598328
0003e0 02 b9 7e 3e cf b5 7e 3e cf 0b dc bf c8 a7 d9 3c
       0.24875262 0.24874042 -1.7191104 0.026569262
0003f0 14 3d ac 40 7c fd 3c bf 52 da 70 3f 91 1c 3a 3b
       5.382456 -0.73824286 0.9408313 0.0028398375

b_h f4 [128]
000000 f9 42 e6 3d d3 92 1d 3f 21 1a 49 3f 18 24 1f 3f
       0.11243243 0.6155216 0.78555495 0.6216445
000010 93 dc b8 3f 57 08 2c 3f b0 28 01 3f 89 2c cb 3f
       1.4442314 0.67200226 0.5045271 1.5872966
000020 dd 56 20 bf b7 a8 60 3e a7 2f d2 3f b4 0b a1 3f
       -0.6263254 0.2193936 1.6420792 1.2581697
000030 9c 81 a1 3f 61 85 af 3f 07 0d 8b 3e 5b b4 b2 bf
       1.2617679 1.3712579 0.27158377 -1.396129
000040 18 a8 a6 3f e3 93 8c bf 5e d9 84 bf aa f2 5a 3f
       1.3020048 -1.0982631 -1.0378835 0.85526526
000050 94 d6 c5 3f cb c8 06 bf e8 3f 9e 3f 0f 31 ff 3e
       1.5456109 -0.52650136 1.2363253 0.49842116
000060 c6 a3 d1 be cc 75 bf 3d 33 ca dc be 7f 55 85 3f
       -0.40945262 0.0934864 -0.43123016 1.0416716
000070 65 15 83 3f aa 0f 5c 3f e9 4c 27 bf 9d b9 f5 3f
       1.0240904 0.859614 -0.6535173 1.919727
000080 0c a7 04 be b2 98 a5 bf 8b 8d 07 3f 66 b2 a7 3f
       -0.12954348 -1.2937224 0.5295035 1.3101318
000090 d8 40 2f 3f 7a ef 47 be a2 e5 5d be a8 bd c5 3f
       0.6845832 -0.19524947 -0.21669629 1.5448503
0000a0 31 26 38 3f 78 0f f0 3e ea 37 5e 3f f7 51 b8 3f
       0.71933275 0.46886802 0.8680407 1.4400014
0000b0 e5 4d d4 3f 38 96 9e bf 01 1b d1 bc 9d a2 92 3f
       1.6586272 -1.2389593 -0.025525572 1.1455876
0000c0 a6 be ce 3f 3e c0 d1 bd f3 e0 ca 3f 12 33 26 bf
       1.6151931 -0.102417454 1.5849899 -0.6492168
0000d0 90 3f 0e 3f a6 b0 2d bf 58 2d 29 3f 7a be 99 3d
       0.5556574 -0.6784767 0.66084814 0.07507034
0000e0 3d a9 15 3f 08 da ce 3d 30 93 28 bf fc a7 51 3f
       0.5846136 0.1010018 -0.6584959 0.8189695
0000f0 32 d1 95 3f 11 b1 bd 3f c6 19 0f 3f f2 6a 30 be
       1.1704466 1.4819661 0.558987 -0.17228296
000100 3f a2 a7 3e 75 9a 92 3f eb 5f 0e 3f d6 1d 67 3e
       0.3274097 1.1453387 0.5561511 0.22569975
000110 6d d1 07 be 35 52 73 3f f1 41 02 3f b0 b3 c0 3f
       -0.13263483 0.9504731 0.5088187 1.5054836
000120 1d d6 aa 3f 9e 3a 6d 3f d0 78 c1 3f 89 17 ca 3e
       1.3346592 0.9266757 1.5114994 0.3947108
000130 3f 26 58 3f 2b 11 a4 3f f7 c7 04 40 48 58 96 3f
       0.8443336 1.2817739 2.074705 1.1745691
000140 6c 2e 1b be 14 07 c8 3f b7 78 91 3f 86 ec b4 3e
       -0.15154427 1.562716 1.1364964 0.35336703
000150 df ae d4 3f dd 3e 05 bf a2 c8 6c 3e 50 47 50 3f
       1.6615866 -0.52049047 0.2312341 0.81358814
000160 46 19 89 3f 59 e3 89 3f e3 f4 f2 be 88 f8 9e bc
       1.0710838 1.0772506 -0.4745246 -0.019405618
000170 32 88 4a be 46 1b c3 3f d9 69 3d bf 15 10 be be
       -0.19778517 1.5242698 -0.73989636 -0.37121645
000180 e7 38 61 3f d8 1d 9b 3f 45 0a a4 3f a7 e1 85 3f
       0.8797745 1.2118483 1.2815634 1.0459489
000190 ae b1 7f 3f 82 43 51 3f 00 d2 fd bd b6 97 57 bf
       0.9988049 0.81743634 -0.1239357 -0.8421587
0001a0 46 ea 0d 3f de 61 61 bf 12 00 0a bf d3 10 88 bf
       0.554356 -0.8803996 -0.5390636 -1.0630134
0001b0 bc 5d af 3e e8 2e 8f bf 83 f4 9a 3f fe 36 b0 be
       0.342512 -1.118619 1.2105869 -0.34416956
0001c0 a8 0b ca 3d 1f 09 97 be fa 98 12 be bb e4 ba 3f
       0.098655045 -0.29499146 -0.14316168 1.4601053
0001d0 4a ab aa 3f 18 cb a5 bd 8d 4c 85 3f 37 b3 a9 3f
       1.3333523 -0.08095378 1.0413986 1.3257817
0001e0 4a e4 9a bf e1 b9 17 bf 14 36 f9 3f f7 f3 50 3f
       -1.2100918 -0.59268004 1.9469628 0.8162226
0001f0 02 0b bf bf bd 7c 26 3f 19 18 fe 3e 87 17 d5 3f
       -1.4925234 0.65034086 0.4962776 1.6647805

W_o (column-major) f4 [10, 128]
000000 c6 29 3f 3e 4a 44 91 be 5a 3e 7a be f9 75 1c 3d
       0.18668279 -0.28372413 -0.24437848 0.038198445
000010 7c 4e 46 bf 58 f2 62 3e b6 3a 8a 3e 22 65 17 c0
       -0.7746351 0.2216276 0.26997918 -2.3655477
000020 fc 13 44 3f ad db 72 3e 13 d4 ee bd e5 67 8c 3e
       0.76592994 0.23716612 -0.11661544 0.27423015
000030 8b dd 0d bf 2b 5b 84 3f b9 df 0f 3f 9b 8b 9c 3e
       -0.5541617 1.0340322 0.5620075 0.3057526
000040 cc 88 3f c0 a3 68 17 c0 ef 56 b5 bf 55 96 ce 3f
       -2.9927244 -2.3657615 -1.4167155 1.6139628
000050 57 e7 b0 3e 74 ad 5e be f9 6b ba bd bc 11 a5 3e
       0.34551498 -0.21745855 -0.091026254 0.32240093
000060 d5 2e 04 c0 46 79 a4 bf 2c b9 5e 3d 55 17 db bf
       -2.0653584 -1.284951 0.054375812 -1.7116495
000070 24 48 2f 3e e5 36 04 3e 4f 7a d6 3e ea 75 78 be
       0.17117363 0.12911566 0.4189019 -0.2426373
000080 37 d7 1a 3e 3e 80 c1 3e 8d 77 15 c0 2b bd 95 bf
       0.1512116 0.37793154 -2.3354218 -1.1698354
000090 e6 ca b9 3d 57 ca fc bf 7d af 9c 3e 06 ee d4 3e
       0.09071903 -1.9749249 0.30602637 0.41587847
0000a0 67 ca 97 bd 83 f1 41 3f a8 e9 ee 3e 8b d1 d2 be
       -0.07411652 0.7575914 0.4666264 -0.41175494
0000b0 48 a2 82 bf f4 52 a1 be 66 74 5a bf 41 92 0b 3f
       -1.0205774 -0.315086 -0.8533386 0.5452004
0000c0 d6 f0 86 3f e8 79 df bf 42 4c b1 3d 7e 0b 81 3e
       1.0542247 -1.7459078 0.08657123 0.2520408
0000d0 82 14 30 3b 29 03 9d 3d 18 6b 6c bf df a2 24 3e
       0.0026867692 0.076666184 -0.9235091 0.16077755
0000e0 43 55 80 be 8f 78 84 3f f3 12 a3 3f e2 5b 84 bf
       -0.2506505 1.0349292 1.2740158 -1.034054
0000f0 88 77 91 3d 77 11 72 be 63 71 1d bf 38 10 87 3d
       0.07102877 -0.23639475 -0.6150114 0.0659489
000100 59 93 54 3e e4 9d 32 3e 82 76 86 3e a7 ca 04 c0
       0.20759334 0.17443043 0.2626229 -2.074869
000110 f4 d1 11 c0 7d 9a ae 3e 1f ff 85 be a9 55 5b 3e
       -2.2784395 0.3410224 -0.26171204 0.21419396
000120 1a fc b9 3c 98 53 ba bf 56 9e 1a 3f f6 aa ce 3e
       0.02270322 -1.4556761 0.6039785 0.40364808
000130 2b 66 9f bf 8b e9 71 3f e9 8c 83 c0 f8 a2 17 bf
       -1.2453054 0.94496983 -4.110951 -0.59233046
000140 33 10 29 be 1e 86 77 be 33 93 66 be 52 7a 7e be
       -0.16510086 -0.24172255 -0.2251709 -0.24851349
000150 8f a0 db 3e 97 63 aa 3e 18 66 87 be c9 f8 00 c0
       0.42895934 0.33279106 -0.2644508 -2.0151846
000160 3f f1 95 c0 a8 5e dd 3e 03 48 c0 c0 69 f8 8d bf
       -4.685699 0.4323628 -6.0087905 -1.1091434
000170 65 51 d7 3f 40 5c 4f bf 80 90 87 3f 86 93 f6 bd
       1.6821715 -0.8100014 1.0590973 -0.120398566
000180 c3 73 94 bf 63 83 f2 3f e8 76 72 bf ed 9a ff c0
       -1.1597828 1.8946346 -0.94712687 -7.987662
000190 5d b0 99 be ec 75 45 3f 66 09 d6 3e 3f d8 64 bf
       -0.30017367 0.7713306 0.41804045 -0.89392465
0001a0 12 56 85 bf 1d 3a 48 be ff 10 9c bf fe 41 22 3f
       -1.0416892 -0.19553418 -1.2192687 0.63381946
0001b0 19 b7 39 3f 12 85 b4 bf 5b 45 51 3e 0c 75 c0 be
       0.7254501 -1.410311 0.20436613 -0.375893
0001c0 ca 7e ad 3e 57 0a 09 3e 72 73 48 c0 76 02 bb bf
       0.33885795 0.1338285 -3.1320462 -1.4610126
0001d0 0f 51 3f 3e 3f 28 f0 3e 5a 65 89 3e f0 11 df be
       0.18683265 0.46905705 0.26835138 -0.43568373
0001e0 04 c0 73 3c 20 86 07 be 4f 09 bb 3d d0 1c 43 3e
       0.014877323 -0.13234758 0.09132635 0.1905396
0001f0 33 40 38 c0 d7 78 a7 bf 1b 1a aa 3e 4d 7c 2e 3f
       -2.8789184 -1.3083752 0.33223042 0.6815842
000200 31 2e ec 3e 56 e8 5c bf 25 53 2c be 45 df 8d 3e
       0.4612899 -0.86292017 -0.16828592 0.27709404
000210 7f e5 4c 3e 90 26 5c bf 12 62 e2 3e 65 f1 6a 3e
       0.20009421 -0.8599634 0.44215447 0.22943647
000220 2d 08 68 bf d1 66 5a 3f 86 d6 65 c0 1e 13 fd be
       -0.90637475 0.85313135 -3.5912185 -0.49428648
000230 e1 e5 10 c0 87 50 06 3f a3 81 11 bf e0 2f 12 40
       -2.2640307 0.52466625 -0.56838435 2.284172
000240 7c a4 c9 3e 8e 94 33 3f 1d ab 1f c1 16 02 cf 3f
       0.39383304 0.7014855 -9.979276 1.6172512
000250 e5 f4 2b bf 77 33 d6 bf 61 e1 69 be 9e 99 63 bf
       -0.67170554 -1.6734456 -0.22839881 -0.88906276
000260 77 a5 03 bf e4 b5 49 3c 12 9f 2e 3f 18 b4 95 3d
       -0.51424354 0.0123114325 0.6821147 0.07309741
000270 7a 7c a4 3e 91 9f d1 bf 1f bb 27 c0 da 93 fc 3e
       0.32126218 -1.6376821 -2.620796 0.49331552
000280 85 0a 8b 3e dc 30 c3 3d 02 13 bb 3e 67 fa 48 bf
       0.27156463 0.095308036 0.3653794 -0.78507084
000290 4e 48 01 3f 6e ce 2f bd 33 22 8e bf 6b b3 1d 3f
       0.50500953 -0.042921476 -1.1104187 0.61601895
0002a0 25 a4 79 c0 bb ed 88 bf 6a 8c 9b be 20 ca 88 bf
       -3.9006436 -1.069755 -0.30380565 -1.0686684
0002b0 42 41 5c 3e fc 3b ab 3e 2a 0f cb bf 9e d0 9c bf
       0.21509269 0.33444202 -1.5864003 -1.2251165
0002c0 22 2a bb 3e 39 c8 35 bf e0 8f 15 3f ba 48 8c be
       0.36555582 -0.7100864 0.5842266 -0.27399236
0002d0 0f 65 3b bc 42 c5 34 bf d1 c5 22 be 39 3a e9 3e
       -0.011437668 -0.7061349 -0.15895773 0.45552233
0002e0 e5 52 19 bf 33 a8 16 be 79 e2 18 3e 8b 1e 16 c0
       -0.5989211 -0.147126 0.14930142 -2.3456142
0002f0 59 fb b6 3f 8b e7 b1 3e 7f 80 48 be ee 15 70 bd
       1.4295455 0.34746966 -0.19580267 -0.058614664
000300 35 52 a3 3e 3a 0e 62 3e 78 dc 2d c0 2f 46 ab bf
       0.31898656 0.2207574 -2.7165813 -1.3380793
000310 b3 92 be 3e 6d 0e 64 3f 46 81 02 3f 49 75 31 bf
       0.37221298 0.8908451 0.50978506 -0.6931959
000320 45 8d a7 bd 69 f6 3c 3f d4 60 14 3f 77 24 3c bf
       -0.08181242 0.7381349 0.5796025 -0.7349314
000330 63 97 3f bf 5f de ed bd b3 e0 8d bf a4 bd 22 3f
       -0.7484037 -0.116146795 -1.1084198 0.6357062
000340 34 a9 3d 3f a1 6f cb bf d4 37 6a 3b 8a 17 1c bf
       0.7408631 -1.5893441 0.0035738843 -0.6097342
000350 19 e6 49 3d 50 77 e3 3e 1d 6c dc bf f2 3b bd be
       0.049291704 0.44426966 -1.7220494 -0.36959797
000360 95 b2 e9 3e 88 a3 f5 bf a1 e6 9d 3f f4 ba c7 3e
       0.4564406 -1.9190531 1.2336007 0.3900982
000370 ed 11 1f be 34 e8 4e 3d d7 5e f2 3d 97 9d 7b bf
       -0.15534182 0.050514415 0.118344955 -0.9828734
000380 71 95 24 3f 2c c1 5e 3e 5a ed 84 bf 7e c2 6e 3f
       0.6429053 0.21753377 -1.0384934 0.9326552
000390 f4 67 81 c0 5e a2 3f bf f3 28 56 3e ac 5a 07 3e
       -4.0439396 -0.7485713 0.20914058 0.13218182
0003a0 39 54 87 bf 33 3d f9 be c8 5f 12 3e 85 e3 21 3d
       -1.0572578 -0.48679504 0.1429435 0.03952362
0003b0 32 99 ec 3e 8d e0 80 bf e2 6a b4 c0 c5 ab 65 3e
       0.4621063 -1.0068527 -5.638047 0.22428806
0003c0 a9 55 2a be 55 2f a9 be 92 55 a0 be 76 ad 80 bd
       -0.1663424 -0.33043924 -0.31315285 -0.06283085
0003d0 6c fd 08 3f b8 1d 8e 3e 17 14 91 3e 69 07 28 c0
       0.5351169 0.2775705 0.2833564 -2.6254523
0003e0 bc cb 56 c0 44 3d b7 3e 5b a8 21 3e 7e c3 b6 bd
       -3.356185 0.3578893 0.15786879 -0.08924006
0003f0 4f 03 f1 3d 85 ed b4 3d 3b bc eb 3e 08 f9 5d 3e
       0.11768209 0.08834366 0.46042046 0.21677029

b_o f4 [10]
000000 f6 b8 70 bd c8 f2 1e be 86 be b1 bb 43 07 64 3d
       -0.058770142 -0.15522301 -0.0054243235 0.055670988
000010 16 40 30 3e e9 c7 10 3d d8 76 16 3c ba 98 f6 bd
       0.17211947 0.0353469 0.009183608 -0.12040849
000020 28 a9 22 3e 54 be b2 3d
       0.1588484 0.087277085
